…
til.Reporter'>, reporter_log_root='train_log/test_case/reports', resize_size=256, scoremap_paths=Munch({'train': 'train_log/test_case/scoremaps/train', 'val': 'train_log/test_case/scoremaps/val', 'test': 'train_log/test_case/scoremaps/test'}), seed=None, spg_threshold_1h=0.7, spg_threshold_1l=0.01, spg_threshold_2h=0.5, spg_threshold_2l=0.05, spg_threshold_3h=0.7, spg_threshold_3l=0.1, spg_thresholds=((0.7, 0.01), (0.5, 0.05), (0.7, 0.1)), test=False, weight_decay=0.0001, workers=4, wsol_method='base')
Loading model resnet18
DataParallel(
  (module): ResNet(
    (stem): BasicStem(
      (conv1): Conv2d(
        3, 64, kernel_size=(7, 7), stride=(2, 2), padding=(3, 3), bias=False
        (norm): GroupNorm(32, 64, eps=1e-05, affine=True)
      )
    )
    (res2): Sequential(
      (0): BottleneckBlock(
        (shortcut): Conv2d(
          64, 256, kernel_size=(1, 1), stride=(1, 1), bias=False
          (norm): GroupNorm(32, 256, eps=1e-05, affine=True)
        )
        (conv1): Conv2d(
          64, 64, kernel_size=(1, 1), stride=(1, 1), bias=False
          (norm): GroupNorm(32, 64, eps=1e-05, affine=True)
        )
        (conv2): Conv2d(
          64, 64, kernel_size=(3, 3), stride=(1, 1), padding=(1, 1), bias=False
          (norm): GroupNorm(32, 64, eps=1e-05, affine=True)
        )
        (conv3): Conv2d(
          64, 256, kernel_size=(1, 1), stride=(1, 1), bias=False
          (norm): GroupNorm(32, 256, eps=1e-05, affine=True)
        )
      )
      (1): BottleneckBlock(
        (conv1): Conv2d(
          256, 64, kernel_size=(1, 1), stride=(1, 1), bias=False
          (norm): GroupNorm(32, 64, eps=1e-05, affine=True)
        )
        (conv2): Conv2d(
          64, 64, kernel_size=(3, 3), stride=(1, 1), padding=(1, 1), bias=False
          (norm): GroupNorm(32, 64, eps=1e-05, affine=True)
        )
        (conv3): Conv2d(
          64, 256, kernel_size=(1, 1), stride=(1, 1), bias=False
          (norm): GroupNorm(32, 256, eps=1e-05, affine=True)
        )
      )
      (2): BottleneckBlock(
        (conv1): Conv2d(
          256, 64, kernel_size=(1, 1), stride=(1, 1), bias=False
          (norm): GroupNorm(32, 64, eps=1e-05, affine=True)
        )
        (conv2): Conv2d(
          64, 64, kernel_size=(3, 3), stride=(1, 1), padding=(1, 1), bias=False
          (norm): GroupNorm(32, 64, eps=1e-05, affine=True)
        )
        (conv3): Conv2d(
          64, 256, kernel_size=(1, 1), stride=(1, 1), bias=False
          (norm): GroupNorm(32, 256, eps=1e-05, affine=True)
        )
      )
    )
    (res3): Sequential(
      (0): BottleneckBlock(
        (shortcut): Conv2d(
          256, 512, kernel_size=(1, 1), stride=(2, 2), bias=False
          (norm): GroupNorm(32, 512, eps=1e-05, affine=True)
        )
        (conv1): Conv2d(
          256, 128, kernel_size=(1, 1), stride=(1, 1), bias=False
          (norm): GroupNorm(32, 128, eps=1e-05, affine=True)
        )
        (conv2): Conv2d(
          128, 128, kernel_size=(3, 3), stride=(2, 2), padding=(1, 1), bias=False
          (norm): GroupNorm(32, 128, eps=1e-05, affine=True)
        )
        (conv3): Conv2d(
          128, 512, kernel_size=(1, 1), stride=(1, 1), bias=False
          (norm): GroupNorm(32, 512, eps=1e-05, affine=True)
        )
      )
      (1): BottleneckBlock(
        (conv1): Conv2d(
          512, 128, kernel_size=(1, 1), stride=(1, 1), bias=False
          (norm): GroupNorm(32, 128, eps=1e-05, affine=True)
        )
        (conv2): Conv2d(
          128, 128, kernel_size=(3, 3), stride=(1, 1), padding=(1, 1), bias=False
          (norm): GroupNorm(32, 128, eps=1e-05, affine=True)
        )
        (conv3): Conv2d(
          128, 512, kernel_size=(1, 1), stride=(1, 1), bias=False
          (norm): GroupNorm(32, 512, eps=1e-05, affine=True)
        )
      )
      (2): BottleneckBlock(
        (conv1): Conv2d(
          512, 128, kernel_size=(1, 1), stride=(1, 1), bias=False
          (norm): GroupNorm(32, 128, eps=1e-05, affine=True)
        )
        (conv2): Conv2d(
          128, 128, kernel_size=(3, 3), stride=(1, 1), padding=(1, 1), bias=False
          (norm): GroupNorm(32, 128, eps=1e-05, affine=True)
        )
        (conv3): Conv2d(
          128, 512, kernel_size=(1, 1), stride=(1, 1), bias=False
          (norm): GroupNorm(32, 512, eps=1e-05, affine=True)
        )
      )
      (3): BottleneckBlock(
        (conv1): Conv2d(
          512, 128, kernel_size=(1, 1), stride=(1, 1), bias=False
          (norm): GroupNorm(32, 128, eps=1e-05, affine=True)
        )
        (conv2): Conv2d(
          128, 128, kernel_size=(3, 3), stride=(1, 1), padding=(1, 1), bias=False
          (norm): GroupNorm(32, 128, eps=1e-05, affine=True)
        )
        (conv3): Conv2d(
          128, 512, kernel_size=(1, 1), stride=(1, 1), bias=False
          (norm): GroupNorm(32, 512, eps=1e-05, affine=True)
        )
      )
    )
    (res4): Sequential(
      (0): BottleneckBlock(
        (shortcut): Conv2d(
          512, 1024, kernel_size=(1, 1), stride=(1, 1), bias=False
          (norm): GroupNorm(32, 1024, eps=1e-05, affine=True)
        )
        (conv1): Conv2d(
          512, 256, kernel_size=(1, 1), stride=(1, 1), bias=False
          (norm): GroupNorm(32, 256, eps=1e-05, affine=True)
        )
        (conv2): Conv2d(
          256, 256, kernel_size=(3, 3), stride=(1, 1), padding=(1, 1), bias=False
          (norm): GroupNorm(32, 256, eps=1e-05, affine=True)
        )
        (conv3): Conv2d(
          256, 1024, kernel_size=(1, 1), stride=(1, 1), bias=False
          (norm): GroupNorm(32, 1024, eps=1e-05, affine=True)
        )
      )
      (1): BottleneckBlock(
        (conv1): Conv2d(
          1024, 256, kernel_size=(1, 1), stride=(1, 1), bias=False
          (norm): GroupNorm(32, 256, eps=1e-05, affine=True)
        )
        (conv2): Conv2d(
          256, 256, kernel_size=(3, 3), stride=(1, 1), padding=(1, 1), bias=False
          (norm): GroupNorm(32, 256, eps=1e-05, affine=True)
        )
        (conv3): Conv2d(
          256, 1024, kernel_size=(1, 1), stride=(1, 1), bias=False
          (norm): GroupNorm(32, 1024, eps=1e-05, affine=True)
        )
      )
      (2): BottleneckBlock(
        (conv1): Conv2d(
          1024, 256, kernel_size=(1, 1), stride=(1, 1), bias=False
          (norm): GroupNorm(32, 256, eps=1e-05, affine=True)
        )
        (conv2): Conv2d(
          256, 256, kernel_size=(3, 3), stride=(1, 1), padding=(1, 1), bias=False
          (norm): GroupNorm(32, 256, eps=1e-05, affine=True)
        )
        (conv3): Conv2d(
          256, 1024, kernel_size=(1, 1), stride=(1, 1), bias=False
          (norm): GroupNorm(32, 1024, eps=1e-05, affine=True)
        )
      )
      (3): BottleneckBlock(
        (conv1): Conv2d(
          1024, 256, kernel_size=(1, 1), stride=(1, 1), bias=False
          (norm): GroupNorm(32, 256, eps=1e-05, affine=True)
        )
        (conv2): Conv2d(
          256, 256, kernel_size=(3, 3), stride=(1, 1), padding=(1, 1), bias=False
          (norm): GroupNorm(32, 256, eps=1e-05, affine=True)
        )
        (conv3): Conv2d(
          256, 1024, kernel_size=(1, 1), stride=(1, 1), bias=False
          (norm): GroupNorm(32, 1024, eps=1e-05, affine=True)
        )
      )
      (4): BottleneckBlock(
        (conv1): Conv2d(
          1024, 256, kernel_size=(1, 1), stride=(1, 1), bias=False
          (norm): GroupNorm(32, 256, eps=1e-05, affine=True)
        )
        (conv2): Conv2d(
          256, 256, kernel_size=(3, 3), stride=(1, 1), padding=(1, 1), bias=False
          (norm): GroupNorm(32, 256, eps=1e-05, affine=True)
        )
        (conv3): Conv2d(
          256, 1024, kernel_size=(1, 1), stride=(1, 1), bias=False
          (norm): GroupNorm(32, 1024, eps=1e-05, affine=True)
        )
      )
      (5): BottleneckBlock(
        (conv1): Conv2d(
          1024, 256, kernel_size=(1, 1), stride=(1, 1), bias=False
          (norm): GroupNorm(32, 256, eps=1e-05, affine=True)
        )
        (conv2): Conv2d(
          256, 256, kernel_size=(3, 3), stride=(1, 1), padding=(1, 1), bias=False
          (norm): GroupNorm(32, 256, eps=1e-05, affine=True)
        )
        (conv3): Conv2d(
          256, 1024, kernel_size=(1, 1), stride=(1, 1), bias=False
          (norm): GroupNorm(32, 1024, eps=1e-05, affine=True)
        )
      )
    )
    (res5): Sequential(
      (0): BottleneckBlock(
        (shortcut): Conv2d(
          1024, 2048, kernel_size=(1, 1), stride=(1, 1), bias=False
          (norm): GroupNorm(32, 2048, eps=1e-05, affine=True)
        )
        (conv1): Conv2d(
          1024, 512, kernel_size=(1, 1), stride=(1, 1), bias=False
          (norm): GroupNorm(32, 512, eps=1e-05, affine=True)
        )
        (conv2): Conv2d(
          512, 512, kernel_size=(3, 3), stride=(1, 1), padding=(1, 1), bias=False
          (norm): GroupNorm(32, 512, eps=1e-05, affine=True)
        )
        (conv3): Conv2d(
          512, 2048, kernel_size=(1, 1), stride=(1, 1), bias=False
          (norm): GroupNorm(32, 2048, eps=1e-05, affine=True)
        )
      )
      (1): BottleneckBlock(
        (conv1): Conv2d(
          2048, 512, kernel_size=(1, 1), stride=(1, 1), bias=False
          (norm): GroupNorm(32, 512, eps=1e-05, affine=True)
        )
        (conv2): Conv2d(
          512, 512, kernel_size=(3, 3), stride=(1, 1), padding=(1, 1), bias=False
          (norm): GroupNorm(32, 512, eps=1e-05, affine=True)
        )
        (conv3): Conv2d(
          512, 2048, kernel_size=(1, 1), stride=(1, 1), bias=False
          (norm): GroupNorm(32, 2048, eps=1e-05, affine=True)
        )
      )
      (2): BottleneckBlock(
        (conv1): Conv2d(
          2048, 512, kernel_size=(1, 1), stride=(1, 1), bias=False
          (norm): GroupNorm(32, 512, eps=1e-05, affine=True)
        )
        (conv2): Conv2d(
          512, 512, kernel_size=(3, 3), stride=(1, 1), padding=(1, 1), bias=False
          (norm): GroupNorm(32, 512, eps=1e-05, affine=True)
        )
        (conv3): Conv2d(
          512, 2048, kernel_size=(1, 1), stride=(1, 1), bias=False
          (norm): GroupNorm(32, 2048, eps=1e-05, affine=True)
        )
      )
    )
    (avgpool): AdaptiveAvgPool2d(output_size=(1, 1))
    (linear): Linear(in_features=2048, out_features=200, bias=True)
  )
)
===========================================================
Start epoch 0 ...
Evaluate epoch 0, split val
